openfermioncirq/experiments/hfvqe/molecular_data/hydrogen_chains/h_12_sto-3g/bond_distance_2.1/parameters.npy (npy, 416 bytes, 1 tensors)

array f8 [36]
0.08313621750395712 -3.304085583938468e-13 -0.2057307677406682 4.5686837509224934e-12 0.5530766567508687 -7.70536415560854e-12 2.2134056039235904e-13 0.008341990832650354
-4.616226407507649e-12 -0.04072837352423276 6.653740584523717e-12 0.5480097673534453 -0.103977504539202 1.4380499629849022e-12 0.6583011697743991 -6.486693382090458e-12
-0.7640192105365863 1.2601592994349858e-11 1.4288229443504154e-12 0.09911875724392628 -8.51933167119587e-12 -0.4206856846808497 1.1537578640918396e-11 0.9189700259882161
-0.09062840001687669 5.708135436591538e-09 0.5218145999961922 -3.15038724020895e-08 -0.5960704249356308 6.496136464205536e-08 8.164298465965785e-09 0.06341198979054692
-4.69643943133022e-08 -0.3500402213149976 5.364731643272457e-08 0.721769930566421
00000000: 5dea 4a47 6a48 b53f 09fe 7387 1c40 57bd
00000010: fb12 9dc3 6255 cabf 0ec0 a06f e117 943d
00000020: c8a1 1dd1 cdb2 e13f 7b80 2501 bcf1 a0bd
00000030: a125 d955 a226 4f3d 1d66 7a0e 9b15 813f
00000040: 859b 80ac 684d 94bd a198 9c70 59da a4bf
00000050: d341 c826 7243 9d3d e17d 95c7 4b89 e13f
00000060: 03fc 830d 459e babf f644 1eba 664c 793d
00000070: d32f 639d cd10 e53f fef1 d012 5e87 9cbd
00000080: eda6 586a d872 e8bf be90 c6f1 10b6 ab3d
00000090: 38b0 e5b2 d822 793d 5167 c8cc d85f b93f
000000a0: ac02 0916 f5bb a2bd 2360 66a6 83ec dabf
000000b0: 06b1 d650 145f a93d 02f5 f3d3 3368 ed3f
000000c0: 624a 293e 6c33 b7bf 5ee0 004a 2984 383e
000000d0: 0fe3 3188 b4b2 e03f af84 05f8 dbe9 60be
000000e0: 70c3 a648 0213 e3bf b86e 9869 1c70 713e
000000f0: 7186 3bdc 5e88 413e 8d1e 53a6 c43b b03f
00000100: 8248 75b9 bc36 69be f547 b519 0f67 d6bf
00000110: 0e79 9724 3bcd 6c3e 659b e040 bd18 e73f
