openfermioncirq/experiments/hfvqe/molecular_data/hydrogen_chains/h_12_sto-3g/bond_distance_0.5/parameters.npy (npy, 416 bytes, 1 tensors)

array f8 [36]
000000 a2 17 3b 0c bc 03 8a 3f 90 89 97 b3 83 9f d5 3b
       0.012702435611014643 1.8315480964316356e-20
000010 3c 38 89 85 99 79 c2 3f 9c 7d 36 8c 06 05 f8 bb
       0.1443359281569786 -8.138167589390718e-20
000020 93 aa b3 0f 28 98 e3 3f 5f 3c 96 3d c9 50 03 3c
       0.6123237902332498 1.3088739813841393e-19
000030 ea 9e b9 f0 99 8b a2 bb 8d 44 f2 8c df f2 81 3f
       -1.9635618879149398e-21 0.00876402520069266
000040 dc 5c 02 84 b6 cc ad bb 86 c0 44 79 29 41 af 3f
       -3.1551617262309778e-21 0.0610440216572679
000050 e4 b0 0e b4 4d 4d d8 3b 5d ee cb bf fc 02 e1 bf
       2.058456665501893e-20 -0.5316146608378848
000060 de 06 66 0a 79 fc 54 3f 72 ef 6e 0b 2e 57 a6 3b
       0.0012808973347947987 2.3653973507580685e-21
000070 0d e1 73 67 ad e9 ab 3f a3 b6 b6 1a 57 db e4 bb
       0.054517191771028185 -3.533278991805213e-20
000080 84 5f 9c a0 98 6a cd 3f 70 33 95 28 98 22 f4 3b
       0.22981555788350871 6.822048844502658e-20
000090 6f b0 9d f1 74 9e 95 3b 70 5f 6c 55 9b 70 68 bf
       1.1444988439264616e-21 -0.0029833825932534183
0000a0 18 de 5d e3 35 c7 92 3b 51 ff b1 ae 90 fb 94 3f
       9.94107831637358e-22 0.020490894949488695
0000b0 ce 43 9d 2a f1 c2 ac 3b a2 8d d9 c6 aa b2 c1 bf
       3.0452414602411053e-21 -0.13826498708213558
0000c0 a8 9e 8e 79 6c 0b 65 bf ba 3e c8 c2 aa 68 91 bb
       -0.0025689238213607198 -9.216171419147267e-22
0000d0 cc c3 f5 57 af 18 87 bf 1c 81 0a ac 8c 9a bc 3b
       -0.011277551528765438 6.057070980973873e-21
0000e0 96 ae 6e f1 43 04 a6 bf 5c d3 cf 78 3c 8f d0 bb
       -0.04300129244014987 -1.4026456047711535e-20
0000f0 e8 e2 87 e7 b7 5b ae 3b ee e1 30 8d bc 86 00 3f
       3.2143073836851015e-21 3.1521443496665985e-05
000100 54 f6 86 1b 4d 9e 93 3b 40 50 de a1 48 5c 72 bf
       1.0385875460254967e-21 -0.004482539863506274
000110 20 4a 21 45 07 d2 5a 3b 4d c5 2f d3 e3 ac 98 3f
       8.874133713363599e-23 0.024097022785956757
