openfermioncirq/experiments/hfvqe/molecular_data/hydrogen_chains/h_12_sto-3g/bond_distance_1.3/parameters.npy (npy, 416 bytes, 1 tensors)

array f8 [36]
000000 d2 03 1e 98 db e6 a3 bf 42 08 78 3f ab b3 ea bb
       -0.03887068015956853 -4.52346625495166e-20
000010 3b 55 58 41 c0 81 d1 bf c6 ea 8a e3 51 e9 02 bc
       -0.2735443723807582 -1.2814867015925908e-19
000020 04 8c d7 a4 36 9e e6 3f 45 08 3a 05 a8 7b 1d 3c
       0.7068131656236578 3.995695991158255e-19
000030 a3 3a aa 0b 1c 2d de 3b 22 85 31 bc 78 30 a4 bf
       2.5560243408336385e-20 -0.03943230912478614
000040 f0 aa 46 6c b7 86 03 3c 89 0d e9 0b 6c 47 bc bf
       1.323149239381398e-19 -0.11046481409817067
000050 8a 52 27 f2 46 8a 14 bc ae 0a 27 ab 92 35 e4 3f
       -2.78370873562287e-19 0.6315396635839841
000060 4a 37 b5 7e b2 c2 84 bf 54 52 cc 1d eb e8 ed bb
       -0.010136980525796386 -5.0669235774113614e-20
000070 0f 23 90 c6 44 ae cd bf 39 50 91 19 bd eb fc bb
       -0.23188075728855792 -9.798766543000863e-20
000080 1e 63 f3 49 f7 87 e1 3f ee de 64 90 c9 db 19 3c
       0.5478474087095468 3.5044862483361e-19
000090 88 78 02 3b 0f 9c c8 3b 83 d8 ec ae f4 3d 93 bf
       1.0422574143009213e-20 -0.01879103009851991
0000a0 09 ab d4 b4 f2 2c 02 3c a5 e0 e2 f6 04 17 b7 bf
       1.2316250995757578e-19 -0.09019499804969884
0000b0 9e 64 00 bd b0 65 10 bc a3 c0 34 22 ca 63 de 3f
       -2.2222387859782035e-19 0.4748406728786085
0000c0 82 0b 84 fa 8f 5c 91 3f fd 6e fb 23 10 f4 df 3b
       0.016954660096426995 2.7065558254523156e-20
0000d0 72 5a 46 65 1e 99 c4 3f f0 bc 8b a5 33 5d f4 3b
       0.16092281289157345 6.899615060174396e-20
0000e0 3f 63 b9 12 1b b0 d8 bf c3 27 92 54 71 90 13 bc
       -0.38574864223987854 -2.651447486587451e-19
0000f0 99 f2 2c 50 8c c8 da 3b b1 65 99 f9 50 c3 7e bf
       2.2686414624076386e-20 -0.007510486897069611
000100 fc 06 00 72 96 15 01 3c d3 7c da 4d a0 0d b7 bf
       1.157679018789822e-19 -0.09005166912764943
000110 d2 1d 5b f5 a1 84 0f bc 97 38 90 96 21 63 db 3f
       -2.1357492793478652e-19 0.4279254885049197
