openfermioncirq/experiments/hfvqe/molecular_data/hydrogen_chains/h_12_sto-3g/bond_distance_2.5/parameters.npy (npy, 416 bytes, 1 tensors)

array f8 [36]
000000 5c 2d 7f c8 25 7d b5 bf 8c 66 bd d6 d0 90 b4 3d
       -0.0839408506864649 1.870438302614024e-11
000010 29 69 c6 b6 95 cd b4 3f be 49 9d ed c8 29 ed bd
       0.08126197540551473 -2.121903684072807e-10
000020 40 54 bd b6 23 67 e1 bf d2 cb 2f d0 df 76 f1 3d
       -0.5438402718670048 2.5413977882789134e-10
000030 f3 bb fc 40 01 34 d1 bd a4 1b 25 e8 01 79 b6 bf
       -6.258467376876284e-11 -0.0877839271316661
000040 5f a9 64 fe 32 c3 f0 3d b1 f6 27 40 79 eb e1 3f
       2.439264332129097e-10 0.5599943402337059
000050 6f 82 8d a4 65 d6 ed bd 9d 5e 2d 34 56 2b bf bf
       -2.1709630124536347e-10 -0.12175501607759505
000060 ce ce 6f 71 65 4a ca bf 2a 15 ed c0 b0 a9 b4 3d
       -0.20539539374259735 1.879275559637509e-11
000070 03 79 64 af 96 e1 eb 3f 3d 28 76 da b3 cd dd bd
       0.8712876725801667 -1.0842459448964423e-10
000080 bd db 61 40 24 28 e5 bf 83 6b 61 5e 3c 4e da 3d
       -0.6611500985589981 9.569924678676293e-11
000090 04 3b 81 a8 f8 17 c3 bd ff 4a ba 79 38 30 ab bf
       -3.473112514867653e-11 -0.05310226903852388
0000a0 68 c6 66 44 9a ca db 3d fa 52 22 9c 69 c6 e5 3f
       1.0110458399344005e-10 0.6804702805989955
0000b0 7b 5d 8f 2b ec a7 e4 bd ee b9 42 b5 9b 3e ef bf
       -1.5029179791307453e-10 -0.9763926067587911
0000c0 0e 5c e7 f5 1a 0b c7 bf 0a 04 5b b9 8e a7 7b be
       -0.18002640730875935 -1.0302112082428269e-07
0000d0 69 9f 00 d7 f4 d0 e7 3f 21 f9 88 b7 f6 cd b1 3e
       0.7442573737398394 1.0612336308748077e-06
0000e0 f1 84 c7 55 80 5b e1 bf ee 42 be f5 6d e2 ba be
       -0.5424195933702817 -1.6024404976036833e-06
0000f0 7a 00 6c 71 ef 1a 97 3e bb c2 d7 c6 1d 95 ab bf
       3.4429454968954533e-07 -0.053872042200855806
000100 bb b0 94 4b 5d e1 b7 be 3a 04 00 55 f6 c1 e1 3f
       -1.423378576180389e-06 0.5549270305783758
000110 70 9c 87 d7 22 67 b1 3e 17 ee 07 bc cb cf ea bf
       1.0372922060132723e-06 -0.8378657028656019
