openfermioncirq/experiments/hfvqe/molecular_data/hydrogen_chains/h_12_sto-3g/bond_distance_1.7/parameters.npy (npy, 416 bytes, 1 tensors)

array f8 [36]
-0.06287900574390802 -4.0082318053340665e-15 -0.2805359295312155 -3.1076880848209528e-15 0.6311271429037629 -1.0624963924788533e-14 3.357484703524019e-15 0.039120949699608526
1.2792421865279834e-14 -0.10064177135843559 -2.1052995436953908e-14 0.5193757145156853 -0.03873869798276938 -1.0171837601024339e-14 -0.41854964443858095 -2.7529902997943044e-14
0.7082961934057402 -1.04020045356791e-15 6.49019902684395e-16 -0.06239188089270519 -1.0584716284236941e-14 0.2128345545013513 3.049910566635617e-14 -0.7679512604589899
0.03919948962327357 2.0185162864150557e-15 0.30955297274035803 6.707448891052252e-14 -0.5285030816861235 -8.836563749781905e-14 -6.2587129635263074e-15 0.031182037178745237
-4.9801167537499874e-14 -0.17522875513176076 4.881767010275092e-14 0.588107789829362
00000000: b76b 46a9 d618 b0bf a980 8738 2d0d f2bc
00000010: 4721 acf8 4cf4 d1bf ab8f a141 d7fd ebbc
00000020: 7177 cc8c 3132 e43f ee34 29ec dfec 07bd
00000030: b3a4 6127 d53d ee3c 1cb8 183f a907 a43f
00000040: 5ab7 0242 54ce 0c3d d392 98bc a8c3 b9bf
00000050: a7d9 0fe0 1cb4 17bd dbce 85d1 b99e e03f
00000060: 4cea d901 8fd5 a3bf 2871 a647 aae7 06bd
00000070: bb6e a772 84c9 dabf 52cc c64c f4fe 1ebd
00000080: e1e2 51c7 5caa e63f 7628 79f0 13bd d2bc
00000090: a343 e6ea 2662 c73c 6fb0 f01f d4f1 afbf
000000a0: c479 4a6b acd5 07bd 5a61 85a5 293e cb3f
000000b0: f66c b664 622b 213d a3fc 9285 0e93 e8bf
000000c0: 0f59 e79b f411 a43f acb6 feb4 612e e23c
000000d0: a729 9345 b7cf d33f c362 49ee 39e1 323d
000000e0: f1aa 754b 7fe9 e0bf f2d1 c14c 6adf 38bd
000000f0: b49e 3205 ce2f fcbc 8018 9f17 2fee 9f3f
00000100: 3313 c6c8 1a09 2cbd cd0a 4e56 e56d c6bf
00000110: 1b4a 2122 5e7b 2b3d e1e0 7a6d c7d1 e23f
