openfermioncirq/experiments/hfvqe/molecular_data/hydrogen_chains/h_12_sto-3g/bond_distance_0.9/parameters.npy (npy, 416 bytes, 1 tensors)

array f8 [36]
00000000: 5323 0477 59ad 963f 78b5 ff30 3cd2 d33b
00000010: f28a 27f8 744f cc3f 20e9 1fe0 6523 113c
00000020: e4b0 9696 1483 e63f 0362 8304 fcd2 1fbc
00000030: c2bd 643c 0587 bc3b 5de1 cdc2 3ebd 963f
00000040: 3819 0544 86db f33b 9199 446b 73f7 b7bf
00000050: c2ef 476a d299 103c d151 3b32 4660 e43f
00000060: ec62 d288 752a 693f 00d2 fa3c a19c 563b
00000070: 61a4 77cd 65c7 c03f 711a ef2f d100 073c
00000080: 73e6 601c 601d da3f b0e9 c48e a8b4 17bc
00000090: 302b 4e6d 2932 9c3b 69ed 83fb 9f66 45bf
000000a0: ea01 b90b 5c38 e43b c883 0b41 3757 a9bf
000000b0: a4a8 474f 053d 003c 2895 69f7 1906 d33f
000000c0: 416c 3df5 0c2b 803f f7a1 3505 4a14 b13b
000000d0: 8b57 a8cc ff3c b13f 22d9 5453 d139 f93b
000000e0: 4b89 e945 7c71 ca3f a081 ed7a b4e6 0abc
000000f0: b9e3 02c2 62c7 b63b 30ef f1d3 87fc 52bf
00000100: efc9 6669 1554 e33b 067d c5a5 bec2 a4bf
00000110: dad3 d277 71da f53b b8e5 f748 3490 cb3f
0.022145650757951895 1.67892356680109e-20 0.22117483250539 2.3226691358220667e-19 0.7035010281738576 -4.3129776529518197e-19 6.040916931619496e-21 0.022206287994295127
6.727988623185542e-20 -0.09361955040785676 2.24983699890489e-19 0.6367522221649385 0.0030720038981367683 7.481628709667036e-23 0.13108513386331125 1.558756917486815e-19
0.4080429341443967 -3.212721021599545e-19 1.4926808797950415e-21 -0.0006531029858076023 3.42542741325456e-20 -0.0494935290241823 1.1003542281304027e-19 0.2972474018227609
0.007894612535599534 3.6166728107308206e-21 0.06733702417872515 8.546850531947979e-20 0.20658830083545818 -1.8228956355119373e-19 4.8236092556416625e-21 -0.0011588407940327887
3.2743670847409636e-20 -0.04054828427865158 7.404183970719457e-20 0.21533826411159196
